[net]
channels=3

# simple stem in
[convolutional]
filters=32
size=3
pad=1
stride=2
batch_normalize=1
activation=relu

# stage 1 (1/1)
# projection
[convolutional]
filters=48
size=1
stride=2
pad=1
batch_normalize=1
activation=linear

[route]
layers=-2

[convolutional]
filters=48
size=1
stride=1
pad=1
batch_normalize=1
activation=relu

[convolutional]
filters=48
groups=6
size=3
stride=2
pad=1
batch_normalize=1
activation=relu

[avgpool]

[convolutional]
filters=8
size=1
stride=1
pad=1
batch_normalize=0
activation=relu

[convolutional]
filters=48
size=1
stride=1
pad=1
batch_normalize=0
activation=logistic

[scale_channels]
from=-4

[convolutional]
filters=48
size=1
stride=1
pad=1
batch_normalize=1
activation=linear

[shortcut]
from=-9
activation=relu

# stage 2 (1/3)
# projection
[convolutional]
filters=104
size=1
stride=2
pad=1
batch_normalize=1
activation=linear

[route]
layers=-2

[convolutional]
filters=104
size=1
stride=1
pad=1
batch_normalize=1
activation=relu

[convolutional]
filters=104
groups=13
size=3
stride=2
pad=1
batch_normalize=1
activation=relu

[avgpool]

[convolutional]
filters=12
size=1
stride=1
pad=1
batch_normalize=0
activation=relu

[convolutional]
filters=104
size=1
stride=1
pad=1
batch_normalize=0
activation=logistic

[scale_channels]
from=-4

[convolutional]
filters=104
size=1
stride=1
pad=1
batch_normalize=1
activation=linear

[shortcut]
from=-9
activation=relu

# stage 2 (2/3)
[convolutional]
filters=104
size=1
stride=1
pad=1
batch_normalize=1
activation=relu

[convolutional]
filters=104
groups=13
size=3
stride=1
pad=1
batch_normalize=1
activation=relu

[avgpool]

[convolutional]
filters=26
size=1
stride=1
pad=1
batch_normalize=0
activation=relu

[convolutional]
filters=104
size=1
stride=1
pad=1
batch_normalize=0
activation=logistic

[scale_channels]
from=-4

[convolutional]
filters=104
size=1
stride=1
pad=1
batch_normalize=1
activation=linear

[shortcut]
from=-8
activation=relu

# stage 2 (3/3)
[convolutional]
filters=104
size=1
stride=1
pad=1
batch_normalize=1
activation=relu

[convolutional]
filters=104
groups=13
size=3
stride=1
pad=1
batch_normalize=1
activation=relu

[avgpool]

[convolutional]
filters=26
size=1
stride=1
pad=1
batch_normalize=0
activation=relu

[convolutional]
filters=104
size=1
stride=1
pad=1
batch_normalize=0
activation=logistic

[scale_channels]
from=-4

[convolutional]
filters=104
size=1
stride=1
pad=1
batch_normalize=1
activation=linear

[shortcut]
from=-8
activation=relu

# stage 3 (1/6)
# projection
[convolutional]
filters=208
size=1
stride=2
pad=1
batch_normalize=1
activation=linear

[route]
layers=-2

[convolutional]
filters=208
size=1
stride=1
pad=1
batch_normalize=1
activation=relu

[convolutional]
filters=208
groups=26
size=3
stride=2
pad=1
batch_normalize=1
activation=relu

[avgpool]

[convolutional]
filters=26
size=1
stride=1
pad=1
batch_normalize=0
activation=relu

[convolutional]
filters=208
size=1
stride=1
pad=1
batch_normalize=0
activation=logistic

[scale_channels]
from=-4

[convolutional]
filters=208
size=1
stride=1
pad=1
batch_normalize=1
activation=linear

[shortcut]
from=-9
activation=relu

# stage 3 (2/6)
[convolutional]
filters=208
size=1
stride=1
pad=1
batch_normalize=1
activation=relu

[convolutional]
filters=208
groups=26
size=3
stride=1
pad=1
batch_normalize=1
activation=relu

[avgpool]

[convolutional]
filters=52
size=1
stride=1
pad=1
batch_normalize=0
activation=relu

[convolutional]
filters=208
size=1
stride=1
pad=1
batch_normalize=0
activation=logistic

[scale_channels]
from=-4

[convolutional]
filters=208
size=1
stride=1
pad=1
batch_normalize=1
activation=linear

[shortcut]
from=-8
activation=relu

# stage 3 (3/6)
[convolutional]
filters=208
size=1
stride=1
pad=1
batch_normalize=1
activation=relu

[convolutional]
filters=208
groups=26
size=3
stride=1
pad=1
batch_normalize=1
activation=relu

[avgpool]

[convolutional]
filters=52
size=1
stride=1
pad=1
batch_normalize=0
activation=relu

[convolutional]
filters=208
size=1
stride=1
pad=1
batch_normalize=0
activation=logistic

[scale_channels]
from=-4

[convolutional]
filters=208
size=1
stride=1
pad=1
batch_normalize=1
activation=linear

[shortcut]
from=-8
activation=relu

# stage 3 (4/6)
[convolutional]
filters=208
size=1
stride=1
pad=1
batch_normalize=1
activation=relu

[convolutional]
filters=208
groups=26
size=3
stride=1
pad=1
batch_normalize=1
activation=relu

[avgpool]

[convolutional]
filters=52
size=1
stride=1
pad=1
batch_normalize=0
activation=relu

[convolutional]
filters=208
size=1
stride=1
pad=1
batch_normalize=0
activation=logistic

[scale_channels]
from=-4

[convolutional]
filters=208
size=1
stride=1
pad=1
batch_normalize=1
activation=linear

[shortcut]
from=-8
activation=relu

# stage 3 (5/6)
[convolutional]
filters=208
size=1
stride=1
pad=1
batch_normalize=1
activation=relu

[convolutional]
filters=208
groups=26
size=3
stride=1
pad=1
batch_normalize=1
activation=relu

[avgpool]

[convolutional]
filters=52
size=1
stride=1
pad=1
batch_normalize=0
activation=relu

[convolutional]
filters=208
size=1
stride=1
pad=1
batch_normalize=0
activation=logistic

[scale_channels]
from=-4

[convolutional]
filters=208
size=1
stride=1
pad=1
batch_normalize=1
activation=linear

[shortcut]
from=-8
activation=relu

# stage 3 (6/6)
[convolutional]
filters=208
size=1
stride=1
pad=1
batch_normalize=1
activation=relu

[convolutional]
filters=208
groups=26
size=3
stride=1
pad=1
batch_normalize=1
activation=relu

[avgpool]

[convolutional]
filters=52
size=1
stride=1
pad=1
batch_normalize=0
activation=relu

[convolutional]
filters=208
size=1
stride=1
pad=1
batch_normalize=0
activation=logistic

[scale_channels]
from=-4

[convolutional]
filters=208
size=1
stride=1
pad=1
batch_normalize=1
activation=linear

[shortcut]
from=-8
activation=relu

# stage 4 (1/6)
# projection
[convolutional]
filters=440
size=1
stride=2
pad=1
batch_normalize=1
activation=linear

[route]
layers=-2

[convolutional]
filters=440
size=1
stride=1
pad=1
batch_normalize=1
activation=relu

[convolutional]
filters=440
groups=55
size=3
stride=2
pad=1
batch_normalize=1
activation=relu

[avgpool]

[convolutional]
filters=52
size=1
stride=1
pad=1
batch_normalize=0
activation=relu

[convolutional]
filters=440
size=1
stride=1
pad=1
batch_normalize=0
activation=logistic

[scale_channels]
from=-4

[convolutional]
filters=440
size=1
stride=1
pad=1
batch_normalize=1
activation=linear

[shortcut]
from=-9
activation=relu

# stage 4 (2/6)
[convolutional]
filters=440
size=1
stride=1
pad=1
batch_normalize=1
activation=relu

[convolutional]
filters=440
groups=55
size=3
stride=1
pad=1
batch_normalize=1
activation=relu

[avgpool]

[convolutional]
filters=110
size=1
stride=1
pad=1
batch_normalize=0
activation=relu

[convolutional]
filters=440
size=1
stride=1
pad=1
batch_normalize=0
activation=logistic

[scale_channels]
from=-4

[convolutional]
filters=440
size=1
stride=1
pad=1
batch_normalize=1
activation=linear

[shortcut]
from=-8
activation=relu

# stage 4 (3/6)
[convolutional]
filters=440
size=1
stride=1
pad=1
batch_normalize=1
activation=relu

[convolutional]
filters=440
groups=55
size=3
stride=1
pad=1
batch_normalize=1
activation=relu

[avgpool]

[convolutional]
filters=110
size=1
stride=1
pad=1
batch_normalize=0
activation=relu

[convolutional]
filters=440
size=1
stride=1
pad=1
batch_normalize=0
activation=logistic

[scale_channels]
from=-4

[convolutional]
filters=440
size=1
stride=1
pad=1
batch_normalize=1
activation=linear

[shortcut]
from=-8
activation=relu

# stage 4 (4/6)
[convolutional]
filters=440
size=1
stride=1
pad=1
batch_normalize=1
activation=relu

[convolutional]
filters=440
groups=55
size=3
stride=1
pad=1
batch_normalize=1
activation=relu

[avgpool]

[convolutional]
filters=110
size=1
stride=1
pad=1
batch_normalize=0
activation=relu

[convolutional]
filters=440
size=1
stride=1
pad=1
batch_normalize=0
activation=logistic

[scale_channels]
from=-4

[convolutional]
filters=440
size=1
stride=1
pad=1
batch_normalize=1
activation=linear

[shortcut]
from=-8
activation=relu

# stage 4 (5/6)
[convolutional]
filters=440
size=1
stride=1
pad=1
batch_normalize=1
activation=relu

[convolutional]
filters=440
groups=55
size=3
stride=1
pad=1
batch_normalize=1
activation=relu

[avgpool]

[convolutional]
filters=110
size=1
stride=1
pad=1
batch_normalize=0
activation=relu

[convolutional]
filters=440
size=1
stride=1
pad=1
batch_normalize=0
activation=logistic

[scale_channels]
from=-4

[convolutional]
filters=440
size=1
stride=1
pad=1
batch_normalize=1
activation=linear

[shortcut]
from=-8
activation=relu

# stage 4 (6/6)
[convolutional]
filters=440
size=1
stride=1
pad=1
batch_normalize=1
activation=relu

[convolutional]
filters=440
groups=55
size=3
stride=1
pad=1
batch_normalize=1
activation=relu

[avgpool]

[convolutional]
filters=110
size=1
stride=1
pad=1
batch_normalize=0
activation=relu

[convolutional]
filters=440
size=1
stride=1
pad=1
batch_normalize=0
activation=logistic

[scale_channels]
from=-4

[convolutional]
filters=440
size=1
stride=1
pad=1
batch_normalize=1
activation=linear

[shortcut]
from=-8
activation=relu

[avgpool]

[fc]
input=440
output=1000
activation=linear
